checkpoint.pt (torch, 232830 bytes, 12 tensors)

conv1.0.weight f4 [16, 1, 5, 5]
0.045077693 -0.072451994 -0.062481444 0.024497977 -0.19479497 0.063343346 -0.014067048 0.06668244
0.0027761434 -0.04759217 0.023057584 0.039969794 0.1263212 0.016029654 0.0005219502 -0.031171063
0.033209123 0.021719165 0.2129975 0.11147831 -0.074660145 -0.13502608 -0.10474375 -0.11869656
-0.021679526 -0.01924331 0.14265813 0.109969 -0.24006584 0.10709966 -0.0024853894 0.23322923
0.122603856 -0.22172976 -0.15993498 -0.07078269 0.22097878 -0.042261202 0.044288106 -0.093995
0.1450954 -0.08004594 0.13594836 -0.010610177 -0.09456516 0.041760292 -0.096015856 0.07889848
-0.037405517 -0.0051650167 -0.1422857 -0.10453222 0.044006407 -0.084543556 0.15988342 0.13705403
-0.04501249 -0.13016932 0.17660713 0.07113226 -0.12220653 0.1347912 0.17254321 0.24454421
-0.13638307 0.033555407 0.06335197 0.03221783 -0.16398555 -0.16181202 0.108822405 -0.061887577
0.004544669 -0.05576471 0.044056684 0.025106031 0.06802201 0.111193925 -0.15488207 0.12608284
-0.1293981 -0.12674047 0.02179587 -0.01136081 0.14712448 -0.10964766 -0.15389769 0.17683676
0.019673502 0.13454169 0.027231986 -0.12166511 0.100673236 0.11049672 -0.10703343 -0.09610671
0.08931854 0.076563574 -0.040216006 -0.062971845 0.11993319 -0.07601569 0.06587922 0.03355624
-0.1712665 -0.22467802 0.1657211 -0.020899534 0.05490868 -0.029624023 -0.0061500208 0.16426626
0.17841312 -0.21976876 -0.031048309 0.05927521 0.13956565 0.14490318 -0.18295917 -0.14976339
-0.16736084 0.023392912 0.22643101 -0.10241494 0.093311846 -0.10920472 -0.21933988 -0.052244343
0.12880439 0.11583336 -0.13942297 0.06732416 0.24460317 0.1979627 0.0629538 0.14696726
0.15390342 0.06995529 -0.12794293 -0.20142211 -0.051000766 -0.038158037 -0.16748767 0.013114884
0.015667718 -0.029694078 0.026173014 -0.0075338134 0.041453183 0.05344101 -0.037534054 0.20302786
-0.0065426403 -0.027956575 -0.18908603 -0.10057762 -0.10440369 -0.074829206 0.10957224 -0.0734118
-0.11603243 0.077182546 0.0404987 0.115896024 -0.08498464 0.090133384 -0.07250039 -0.064807825
-0.13949531 -0.0624695 -0.0108527215 0.09758953 0.060446803 0.119120315 0.26201102 0.09513613
0.094791844 0.047441497 -0.07853933 0.19461538 -0.10007763 -0.04336908 -0.14357884 -0.0450259
-0.15084554 0.17121017 -0.13983865 -0.14585815 -0.06078855 -0.14856382 0.09366569 0.005693345
-0.058217328 -0.021392759 0.14191324 -0.114687264 0.19049154 0.19264589 0.19477002 -0.14050083
0.031843588 -0.16637224 0.13918862 -0.099126935 0.023929358 -0.015498687 -0.044259798 0.038991645
0.14171429 0.09211768 0.019146644 0.06549202 -0.12289645 0.20759201 0.20753498 0.1244944
0.104589365 -0.13870512 -0.1174431 0.12746571 -0.23561628 0.083677344 -0.20910455 -0.22071125
0.015403394 -0.102517806 0.006233358 0.19850977 0.21035846 0.2353477 -0.01667981 -0.14681035
0.18791687 -0.036309585 -0.043289416 0.028129524 -0.18442331 0.07759412 0.12502386 -0.09354051
-0.19029719 -0.04712905 0.053035833 -0.002592547 -0.068037584 -0.005117124 -0.17956348 -0.123806484
-0.10244742 0.16046946 0.18118797 -0.050475452 -0.010414319 0.09489971 0.01706048 -0.0772787
00000000: 63a3 383d b661 94bd 8bec 7fbd fbaf c83c
00000010: 5578 47be 28ba 813d 7a79 66bc ce90 883d
00000020: f5ef 353b 02f0 42bd 42e3 bc3c 5eb7 233d
00000030: 585a 013e 9f50 833c 7cd3 083a 755a ffbc
00000040: 4a06 083d 64ec b13c 041c 5a3e bd4e e43d
00000050: 6be7 98bd 4744 0abe e483 d6bd 2f17 f3bd
00000060: 4399 b1bc 25a4 9dbc f914 123e 6d37 e13d
00000070: d2d3 75be 1157 db3d eae1 22bb a5d3 6e3e
00000080: bb17 fb3d 200d 63be ffc5 23be 84f6 90bd
00000090: 4348 623e 151a 2dbd 7267 353d 7380 c0bd
000000a0: e393 143e 20ef a3bd 0c36 0b3e 4fd6 2dbc
000000b0: 61ab c1bd d70c 2b3d f6a3 c4bd 8795 a13d
000000c0: 8736 19bd 4d3f a9bb 58b3 11be fd14 d6bd
000000d0: 1040 343d 2c25 adbd 7bb8 233e e457 0c3e
000000e0: 045f 38bd 1b4b 05be 80d8 343e caad 913d
000000f0: 6b47 fabd b406 0a3e 2baf 303e cc69 7a3e
00000100: 01a8 0bbe 6571 093d adbe 813d d8f6 033d
00000110: d4eb 27be 0db2 25be 48de de3d d47d 7dbd
00000120: 72eb 943b 8969 64bd c874 343d 2aab cd3c
00000130: 204f 8b3d a4b9 e33d 6899 1ebe dc1b 013e
00000140: ef80 04be 41c8 01be 418d b23c b122 3abc
00000150: cda7 163e f48e e0bd 5b97 1dbe b214 353e
00000160: 532a a13c 4cc5 093e 9d15 df3c 8f2b f9bd
00000170: c52d ce3d 1b4c e23d 5834 dbbd 98d3 c4bd
00000180: a4ec b63d 5dcd 9c3d 8ab9 24bd 62f7 80bd
00000190: 889f f53d 1dae 9bbd afeb 863d 4572 093d
000001a0: 7c60 2fbe ff11 66be cbb2 293e 8035 abbc
000001b0: ede7 603d 14ae f2bc 1d86 c9bb 6a35 283e
000001c0: eeb1 363e 100b 61be 0659 febc 90ca 723d
000001d0: 4cea 0e3e 8061 143e a659 3bbe 935b 19be
000001e0: a460 2bbe 7ea2 bf3c 88dd 673e edbe d1bd
000001f0: 481a bf3d b9a6 dfbd a29a 60be 2afe 55bd
00000200: 4ce5 033e 0a3a ed3d e5c4 0ebe 40e1 893d
00000210: 4179 7a3e bcb6 4a3e eced 803d 967e 163e
00000220: dc98 1d3e b844 8f3d 7903 03be 9941 4ebe
00000230: 2ee6 50bd 9a4b 1cbd e381 2bbe cfdf 563c
00000240: 9659 803c ff40 f3bc ca68 d63c 35de f6bb
00000250: d0ca 293d f6e4 5a3d 4fbd 19bd 89e6 4f3e
00000260: a563 d6bb 3005 e5bc c59f 41be a4fb cdbd
00000270: 9ad1 d5bd 0e40 99bd 6967 e03d ed58 96bd
00000280: 69a2 edbd e211 9e3d f7e1 253d e55a ed3d
00000290: 6d0c aebd da97 b83d 167b 94bd f7b9 84bd
000002a0: dcd7 0ebe 05e0 7fbd 9dcf 31bc 05dd c73d
000002b0: 1197 773d 5af5 f33d 4f26 863e bbd6 c23d
000002c0: 3a22 c23d 0452 423d 3ad9 a0bd 4149 473e
000002d0: 80f5 ccbd c7a3 31bd 5506 13be 146d 38bd
000002e0: 4177 1abe b851 2f3e dd31 0fbe d75b 15be
000002f0: 6afd 78bd 1d21 18be ccd3 bf3d 3d8f ba3b
00000300: 4b75 6ebd de3f afbc b451 113e 28e1 eabd
00000310: 3710 433e f744 453e cb71 473e 73df 0fbe
00000320: 6c6e 023d 7c5d 2abe 7687 0e3e 1003 cbbd
00000330: 8007 c43c 34ee 7dbc c349 35bd b4b5 1f3d
00000340: 8d1d 113e 32a8 bc3d 6cd9 9c3c ae20 863d
00000350: 22b1 fbbd 0093 543e 0d84 543e ecf6 fe3d
00000360: f332 d63d b708 0ebe 0286 f0bd 5f86 023e
00000370: 6545 71be 075f ab3d 811f 56be 2102 62be
00000380: 845e 7c3c dbf4 d1bd 3241 cc3b 2546 4b3e
00000390: 3568 573e fdfe 703e 19a4 88bc 7455 16be
000003a0: 486d 403e 5cb9 14bd 3e50 31bd e36f e63c
000003b0: 77d9 3cbe aae9 9e3d 4106 003e 2b92 bfbd
000003c0: 44dd 42be 640a 41bd 1a3c 593d b9e7 29bb
000003d0: 4a57 8bbd 8cad a7bb 7ddf 37be 418e fdbd
000003e0: f4cf d1bd 1b52 243e 5789 393e 59bf 4ebd
000003f0: d2a0 2abc c75a c23d 6bc2 8b3c 4c44 9ebd

conv1.0.bias f4 [16]
3.338017e-05 1.045928e-05 -0.00018591783 1.6769658e-08 -3.380258e-07 2.536565e-06 -1.5723728e-05 -1.5268e-05
-2.5070017e-06 3.7036234e-06 -1.47514265e-05 1.0197103e-05 -2.7790302e-05 2.4505947e-05 -1.3804745e-05 -2.5647772e-05
00000000: af01 0c38 447a 2f37 f0f2 42b9 de0c 9032
00000010: ea79 b5b4 db39 2a36 73e6 83b7 c813 80b7
00000020: f63d 28b6 c48b 7836 e57c 77b7 3914 2b37
00000030: 381f e9b7 1f92 cd37 ee9a 67b7 2c26 d7b7

conv1.1.weight f4 [16]
1.1387614 1.105937 1.139811 1.075722 1.0869422 1.1084639 1.1074867 1.106286
1.1087111 1.1101673 1.0631169 1.100101 1.1106788 1.160305 1.1180034 1.0480386
00000000: efc2 913f 588f 8d3f 54e5 913f 42b1 893f
00000010: ec20 8b3f 25e2 8d3f 20c2 8d3f c89a 8d3f
00000020: 3fea 8d3f f619 8e3f 3714 883f 1cd0 8c3f
00000030: b92a 8e3f e084 943f bc1a 8f3f 2126 863f

conv1.1.bias f4 [16]
-0.0009812769 -0.0030110544 -0.011852428 -0.0082770875 -0.028103791 0.0017753015 0.019679751 -0.0057265293
0.011273123 0.01692483 0.023587931 0.021427426 0.023021258 0.08547322 0.03391753 -0.0007487887
00000000: 309e 80ba 1c55 45bb b030 42bc 9f9c 07bc
00000010: ec39 e6bc 3cb1 e83a 6e37 a13c 9ca5 bbbb
00000020: e8b2 383c f1a5 8a3c 7a3b c13c 9288 af3c
00000030: 1497 bc3c 950c af3d 1ced 0a3d 5c4a 44ba

conv1.1.running_mean f4 [16]
-0.013448044 0.036717962 0.034094647 0.019689552 0.020203752 0.036372658 -0.0019599765 0.007955296
0.014556716 -0.00756189 0.09704536 -0.0045083947 0.0317697 -0.1072502 0.020167159 0.06260133
00000000: 2f55 5cbc 9365 163d d4a6 0b3d fc4b a13c
00000010: 5782 a53c 7ffb 143d f372 00bb ee56 023c
00000020: 4b7f 6e3c bbc9 f7bb b8bf c63d 28bb 93bb
00000030: f220 023d fea5 dbbd 9935 a53c 2035 803d

conv1.1.running_var f4 [16]
0.013715512 0.044936668 0.02741015 0.029206093 0.03505884 0.03204637 0.017041203 0.028421555
0.034444995 0.055413567 0.036282893 0.03908782 0.061556503 0.05958566 0.034335095 0.039407115
00000000: 07b7 603c 830f 383d 408b e03c 9e41 ef3c
00000010: dc99 0f3d 0e43 033d fe99 8b3c 52d4 e83c
00000020: 3216 0d3d 56f9 623d 5f9d 143d 8d1a 203d
00000030: ac22 7c3d 1810 743d f5a2 0c3d 5b69 213d

conv2.0.weight f4 [32, 16, 5, 5]
-0.05618009 0.02621789 -0.011658887 0.013987007 -0.021241603 0.0447401 0.023804422 0.06332557
0.028807124 0.06879516 -0.0028806347 -0.032337215 -0.0025448406 -0.014437701 0.027911708 0.020193582
0.039809786 0.048229106 0.0076394654 -0.0785453 0.03968862 0.043273352 0.091479875 0.06893767
-0.04583943 0.033531316 -0.022631146 0.04199458 -0.00020581383 0.0009791723 -0.066664025 0.024414577
-0.038820088 -0.069979064 0.021432195 0.020613346 0.037033115 -0.036259796 0.016730944 0.016774926
-0.0144798085 -0.058844626 0.0020563654 -0.044120908 -0.021928575 -0.06145301 0.02481797 0.0073404275
-0.01645936 0.0018321365 -0.006437047 0.010955909 -0.005183114 -0.032138236 0.00091851194 0.006065627
0.070000924 0.038199387 0.054358445 0.053746376 -0.016678251 0.015785495 0.040993825 -0.021873912
0.002149964 -0.08500753 -0.0030261604 0.03571585 0.03797752 -0.022203472 -0.06301222 0.03878222
0.0070270603 0.038839165 0.06213546 0.0012680466 0.057646308 -0.040485714 -0.008658271 0.011405197
0.054673433 -0.015338549 -0.028295502 0.034727134 -0.055606823 -0.06982348 -0.068716384 -0.00073869684
-0.0047029 -0.019415263 -0.06085694 -0.041687224 0.010133317 -0.04584196 -0.019311223 0.012697808
-0.041114375 0.013134592 0.025968721 -0.06229924 -0.07441704 -0.03162782 -0.030823307 0.016400816
-0.029766193 -0.05860896 0.019740617 -0.03478521 -0.03472025 -0.027242612 0.047715854 -0.00040215746
-0.04150522 -0.049615674 -0.013711255 0.023597335 0.015747905 0.033362947 -0.010033092 -0.067303635
0.021684255 -0.0032733772 -0.027677797 0.045468975 0.034100085 -0.03592429 -0.018187966 -0.009240061
0.0025583995 0.053287514 -0.055790562 0.053491727 -0.009372187 0.0407887 0.019837769 -0.011396534
0.03735765 -0.029190103 -0.002004883 0.013890006 0.0049380963 -0.041767556 -0.014266625 -0.02814761
-0.030634845 -0.043717604 -0.013814795 -0.03094364 0.019151192 0.024176933 -0.037830725 -0.035811026
0.016297786 0.02376711 0.05226855 -0.053232558 -0.03815938 -0.050790142 -0.018280476 -0.017059376
-0.00751392 0.0026358564 0.010431489 -0.025866386 0.035455476 0.012458693 -0.0052812733 0.079598516
0.027465476 -0.033784833 -0.021257082 0.041848462 0.049113087 0.0479805 -0.032828733 0.040836055
0.03518713 0.040980645 0.014692062 0.07639271 0.01407387 -0.011442482 0.039988928 0.038966082
0.02891106 -0.015816366 0.10201858 0.06831143 -0.029977126 -0.060872212 0.039404795 0.08807696
0.0031468724 0.078564726 0.022334402 -0.0108965505 -0.024896154 0.012433257 0.02601681 0.025716782
-0.0014149639 0.018691044 0.076405734 0.033905435 0.033376593 -0.03914275 0.051827524 0.036395054
0.0796932 0.073096655 -0.018863317 0.041153993 -0.024900062 0.07619234 0.06484751 0.0030267749
0.02740971 -0.030914316 -0.04514 -0.019276809 0.020897748 0.019960854 -0.017989729 -0.0056849215
0.005594036 -0.030408474 0.045489833 0.064111896 0.05902995 0.02851161 -0.06101068 0.043826006
-0.032167114 0.007002987 -0.028145155 0.015027689 -0.055273402 -0.015469782 -0.009664536 -0.00564762
-0.036573324 0.04347929 0.004309795 -0.011899153 -0.06425071 0.041832455 0.011467103 -0.040639825
0.0008787831 -0.046834968 0.016067702 -0.043501895 -0.06443351 -0.040013865 0.031665664 -0.024062283
00000000: 181d 66bd e7c6 d63c eb04 3fbc c229 653c
00000010: df02 aebc 6541 373d 7e01 c33c d6b0 813d
00000020: ebfc eb3c 7ae4 8c3d 08c9 3cbb 0774 04bd
00000030: 57c7 26bb 1b8c 6cbc 18a7 e43c 036d a53c
00000040: 960f 233d e28b 453d 7b54 fa3b 5cdc a0bd
00000050: 8990 223d 663f 313d cd59 bb3d 312f 8d3d
00000060: 20c2 3bbd 2258 093d f464 b9bc 8202 2c3d
00000070: bbcf 57b9 9257 803a 2687 88bd 1401 c83c
00000080: d001 1fbd 2f51 8fbd 9292 af3c 52dd a83c
00000090: 09b0 173d 2785 14bd 550f 893c 926b 893c
000000a0: b83c 6dbc 1007 71bd 16c4 063b 20b8 34bd
000000b0: 8ea3 b3bc 27b6 7bbd 0e4f cb3c f887 f03b
000000c0: c8d5 86bc 4d24 f03a dded d2bb 6a80 333c
000000d0: 1dd7 a9bb 62a3 03bd 4bc8 703a 2bc2 c63b
000000e0: a55c 8f3d f676 1c3d f6a6 5e3d 2925 5c3d
000000f0: d4a0 88bc 9550 813c 24e9 273d eb30 b3bc
00000100: 69e6 0c3b 6e18 aebd 8c52 46bb c84a 123d
00000110: 518e 1b3d 0ee4 b5bc 8d0c 81bd 1bda 1e3d
00000120: 4143 e63b d115 1f3d c181 7e3d 9534 a63a
00000130: 891e 6c3d 59d4 25bd 6cdb 0dbc dddc 3a3c
00000140: 40f1 5f3d 8a4e 7bbc f8cb e7bc 0a3e 0e3d
00000150: fbc3 63bd 9dff 8ebd 2dbb 8cbd 1ba5 41ba
00000160: c91a 9abb c20c 9fbc 2045 79bd 39c0 2abd
00000170: 3606 263c c7c4 3bbd 9232 9ebc 780a 503c
00000180: 8c67 28bd 7932 573c 5bbc d43c 7d2d 7fbd
00000190: f667 98bd 2c8c 01bd 2981 fcbc 015b 863c
000001a0: 3bd8 f3bc f30f 70bd 13b7 a13c f07a 0ebd
000001b0: d236 0ebd e62b dfbc b371 433d a9d8 d2b9
000001c0: 6101 2abd ce39 4bbd 2ca5 60bc 334f c13c
000001d0: c001 813c 96a7 083d d761 24bc 7dd6 89bd
000001e0: 2ea3 b13c 2886 56bb 8cbc e2bc ad3d 3a3d
000001f0: 88ac 0b3d 5925 13bd eefe 94bc a063 17bc
00000200: d2aa 273b 0244 5a3d a584 64bd 241a 5b3d
00000210: cd8d 19bc 0d12 273d d182 a23c 87b8 3abc
00000220: 5604 193d 1520 efbc 5b64 03bb e892 633c
00000230: c1cf a13b 7514 2bbd 90be 69bc d195 e6bc
00000240: edf5 fabc 3b11 33bd 7357 62bc 847d fdbc
00000250: f6e2 9c3c b40e c63c 64f4 1abd 95ae 12bd
00000260: ef82 853c 3eb3 c23c 8c17 563d 620a 5abd
00000270: 034d 1cbd 5309 50bd f0c0 95bc 1bc0 8bbc
00000280: 5437 f6bb 55be 2c3b d6e8 2a3c bee5 d3bc
00000290: c339 113d 8c1f 4c3c 880e adbb 8c04 a33d
000002a0: 47ff e03c f761 0abd 5523 aebc 4b69 2b3d
000002b0: ce2a 493d 3387 443d 6c77 06bd b543 273d
000002c0: 6120 103d 52db 273d f9b6 703c c873 9c3d
000002d0: 1796 663c 3f79 3bbc 6ecb 233d e69a 1f3d
000002e0: e3d6 ec3c 5391 81bc 1eef d03d dde6 8b3d
000002f0: 9792 f5bc 2455 79bd ec66 213d b161 b43d
00000300: c23b 4e3b 8be6 a03d a3f6 b63c 7287 32bc
00000310: 05f3 cbbc dcb4 4b3c 3521 d53c 00ac d23c
00000320: 4f76 b9ba f61d 993c 9c7a 9c3d 6de0 0a3d
00000330: e5b5 083d 2654 20bd 1949 543d fb12 153d
00000340: 3036 a33d b3b3 953d 3e87 9abc 1791 283d
00000350: 37fb cbbc bb0a 9c3d c5ce 843d db5c 463b
00000360: 548a e03c 0540 fdbc b8e4 38bd 66ea 9dbc
00000370: c131 ab3c f284 a33c 325f 93bc 9448 babb
00000380: 2d4e b73b 311b f9bc 8c53 3a3d 194d 833d
00000390: 64c9 713d 2e91 e93c 56e6 79bd e682 333d
000003a0: aac1 03bd 5079 e53b ab90 e6bc b236 763c
000003b0: 5d66 62bd f874 7dbc 0158 1ebc ac0f b9bb
000003c0: e9cd 15bd 5717 323d 2e39 8d3b aaf4 42bc
000003d0: e095 83bd 8258 2b3d 84e0 3b3c f275 26bd
000003e0: 235e 663a 06d6 3fbd 6aa0 833c 0b2f 32bd
000003f0: b7f5 83bd 94e5 23bd dbb3 013d 441e c5bc

conv2.0.bias f4 [32]
-0.036787204 -0.0637472 -0.054632567 -0.050418157 -0.04678257 0.07619725 -0.00052983913 0.023941347
0.012718915 0.010728327 0.017501019 -0.058545455 -0.08215589 0.0052514635 0.010103215 -0.026419457
0.007269862 -0.032795932 0.034935378 0.01104047 -0.029844347 0.0058395723 -0.024591113 0.010718722
-0.030651018 0.015017747 0.025533022 0.052087132 -0.035845894 -0.00036220238 -0.015471823 -0.0067853616
00000000: 2eae 16bd e48d 82bd 66c6 5fbd 4583 4ebd
00000010: 159f 3fbd 4e0d 9c3d e7e4 0aba a520 c43c
00000020: ff62 503c ddc5 2f3c 4c5e 8f3c 5ccd 6fbd
00000030: 5941 a8bd 7814 ac3b f587 253c 9e6d d8bc
00000040: 0638 ee3b 0755 06bd 6618 0f3d 16e3 343c
00000050: 227c f4bc e259 bf3b 4d73 c9bc 949d 2f3c
00000060: d817 fbbc ff0c 763c a12a d13c 5159 553d
00000070: 25d3 12bd fbe5 bdb9 877d 7dbc bd57 debb

fc1.weight f4 [84, 512]
0.017528918 -0.05574401 -0.00080500403 -0.025074411 -0.004968301 -0.052553542 0.021910965 0.010455368
-0.043383036 -0.05955824 0.01840573 0.036268394 -0.06409145 -0.0024673531 0.023312813 0.04717129
0.015835455 0.031865403 0.020045346 0.011272215 0.022302585 -0.016938195 -0.026941746 0.014136986
-0.052824702 0.006604452 0.006311752 0.03618391 0.049869306 0.041598555 0.05427304 -0.020714225
0.015637072 0.03818571 0.045103073 0.0569294 0.0007147966 -0.017897902 0.05243407 0.0046425313
-0.0065540927 0.0025904754 0.015302863 -0.021078896 -0.025337864 0.0054901266 -0.02903383 -0.059476532
0.00439088 0.036559667 0.046628304 0.04565267 -0.016035372 0.01920229 0.011931219 0.039588213
0.041103147 0.00041053104 0.019226559 0.0003018524 -0.010974559 0.06163628 -0.013191016 -0.06532743
-0.017684385 -0.08594963 -0.012583407 0.010014269 -0.058793508 0.038377047 0.082578465 0.016795998
0.051987473 -0.004328867 0.038235724 0.038135808 0.004587668 0.009471992 0.0142238885 0.06625204
0.04029844 0.021579735 0.07092882 0.055974666 0.0713221 -0.0032051702 0.022102835 0.060054094
0.0020950339 0.07525862 0.026185531 -0.002697562 0.036050506 -0.017209558 -0.042335477 0.058434404
0.027239913 0.055503927 -0.049795035 -0.065831006 0.05315956 0.04746476 0.03232468 0.012550468
-0.04682273 -0.00106931 -0.021423956 -0.045224465 -0.099737145 -0.07668089 -0.07866376 0.049807243
-0.029295439 0.0052825706 0.008163975 -0.012574093 0.015722971 0.013344936 -0.029866375 0.05377651
0.031630103 -0.0028589237 -0.031283893 0.037558354 0.027577182 0.016830955 0.056187853 0.016570535
0.018100616 0.035491515 0.033943135 0.078788996 0.031606942 -0.034877982 0.051845055 0.017923214
0.045849625 0.048520822 0.011081373 -0.015750665 0.01532225 -0.00060960266 0.0019927463 0.015115835
-0.017412571 -0.008140186 -0.045459386 0.01644655 -0.0068389503 0.003902355 -0.06043387 0.013864718
-0.06458717 -0.028444728 -0.022300377 0.04270173 0.021185836 0.041607685 0.016318666 0.0286349
-0.03781948 0.013833562 0.06489495 -0.010065596 -0.015241939 0.015409025 0.035256516 0.04427192
0.03171124 0.0041978327 0.013059517 0.037575595 -0.04299746 0.04413161 -0.0018275894 -0.03759238
0.014899215 -0.02227363 -0.030493807 -0.0071204174 -0.005269401 0.005057549 -0.026560513 0.053743646
-0.055088192 -0.06790324 0.02104256 0.028486261 0.03448928 0.029978078 0.019756267 -0.038143553
-0.06297475 -0.032668512 0.064104326 -0.007955794 -0.06309875 -0.09134273 0.0017100248 0.0027149038
-0.055215277 0.03683277 -0.03171236 0.02126688 -0.03497691 0.022409556 0.011778809 -0.005735934
-0.09325714 0.012694821 0.02174274 0.046621807 -0.035589077 0.045360472 -0.026819462 -0.01217222
0.027572403 0.0062977416 0.0272645 0.036628418 -0.015164299 -0.022615494 0.030340903 0.013159998
0.0008325315 -0.0134878615 0.02784942 0.04020312 0.04362497 -0.017169153 -0.013074388 -0.005138474
-0.037645712 -0.0021192867 0.026025089 0.0071380925 0.018289689 0.010689194 0.047044944 -0.003671159
-0.008201767 0.02547197 0.03420514 -0.015147139 -0.04090683 -0.07531094 -0.058474984 -0.008584024
-0.021085031 -0.011581829 0.040256564 -0.009154025 0.011193494 0.0041436115 -0.0045281104 0.0020604916
00000000: ce98 8f3c d553 64bd e806 53ba da68 cdbc
00000010: 21cd a2bb 6242 57bd a07e b33c fe4c 2b3c
00000020: 69b2 31bd 57f3 73bd 9dc7 963c 2b8e 143d
00000030: 6142 83bd 51b3 21bb 83fa be3c af36 413d
00000040: 5bb9 813c 4c85 023d 2336 a43c 19af 383c
00000050: e9b3 b63c f8c1 8abc f0b4 dcbc d19e 673c
00000060: b75e 58bd 296a d83b d0d2 ce3b 9435 143d
00000070: c243 4c3d 3f63 2a3d 684d 5e3d e1b0 a9bc
00000080: 5119 803c 9e68 1c3d 00be 383d cd2e 693d
00000090: 3061 3b3a 9f9e 92bc 1bc5 563d 6020 983b
000000a0: b7c3 d6bb f7c4 293b dcb8 7a3c a6ad acbc
000000b0: 5a91 cfbc 85e6 b33b 5bd8 edbc aa9d 73bd
000000c0: 5fe1 8f3b 97bf 153d 52fd 3e3d 4bfe 3a3d
000000d0: 9d5c 83bc 1f4e 9d3c 297b 433c 4027 223d
000000e0: c65b 283d 8b3c d739 0481 9d3c f141 9e39
000000f0: a3ce 33bc 5376 7c3d 221f 58bc 63ca 85bd
00000100: d8de 90bc 5c06 b0bd a22a 4ebc e312 243c
00000110: 76d1 70bd 4031 1d3d e61e a93d c397 893c
00000120: d1f0 543d 2bd9 8dbb 109d 1c3d 4b34 1c3d
00000130: 2654 963b 6a30 1b3c 500b 693c 26af 873d
00000140: fa0f 253d fcc7 b03c 2143 913d b145 653d
00000150: 5211 923d d50d 52bb 0111 b53c 48fb 753d
00000160: d64c 093b 3121 9a3d 0a83 d63c 95c9 30bb
00000170: b2a9 133d 0ffb 8cbc f767 2dbd ea58 6f3d
00000180: 3d26 df3c 1658 633d e1f5 4bbd 68d2 86bd
00000190: d7bd 593d 686a 423d e266 043d 7aa0 4d3c
000001a0: 31c9 3fbd 1728 8cba 4b81 afbc 4a3d 39bd
000001b0: fd42 ccbd df0a 9dbd 771a a1bd ae02 4c3d
000001c0: fdfc efbc 6a19 ad3b 31c2 053c 9203 4ebc
000001d0: 76cd 803c b8a4 5a3c 54aa f4bc c244 5c3d
000001e0: 918e 013d c85c 3bbb 8a23 00bd cad6 193d
000001f0: 8be9 e13c 12e1 893c 3c25 663d eebe 873c
00000200: be47 943c 8d5f 113d f507 0b3d 205c a13d
00000210: 4876 013d 37dc 0ebd 7b5b 543d b4d3 923c
00000220: d1cc 3b3d c5bd 463d a68e 353c 8a07 81bc
00000230: 2d0a 7b3c becd 1fba bc98 023b 68a8 773c
00000240: cfa4 8ebc 6a5e 05bc 9f33 3abd eaba 863c
00000250: 4619 e0bb a7be 7f3b 8189 77bd d828 633c
00000260: 4746 84bd eb04 e9bc 48af b6bc 02e8 2e3d
00000270: eb8d ad3c d26c 2a3d b9ae 853c bd93 ea3c
00000280: 99e8 1abd 2aa6 623c a5e7 843d 2bea 24bc
00000290: 53b9 79bc 2376 7c3c 2369 103d 7956 353d
000002a0: a5e3 013d f98d 893b 96f7 553c dee8 193d
000002b0: 1b1e 30bd 59c3 343d b98b efba 78fa 19bd
000002c0: d61b 743c 3077 b6bc 26ce f9bc 6452 e9bb
000002d0: f0aa acbb ccb9 a53b 6f95 d9bc 4c22 5c3d
000002e0: 28a4 61bd db10 8bbd 7261 ac3c 055c e93c
000002f0: a244 0d3d 9694 f53c e5d7 a13c 6a3c 1cbd
00000300: e8f8 80bd 6bcf 05bd 2149 833d 0559 02bc
00000310: eb39 81bd e611 bbbd e922 e03a 87ec 313b
00000320: 6a29 62bd f5dd 163d d2e4 01bd e137 ae3c
00000330: f343 0fbd 3f94 b73c e8fb 403c 80f4 bbbb
00000340: 99fd bebd f0fd 4f3c d51d b23c 82f6 3e3d
00000350: dac5 11bd e7cb 393d 7db4 dbbc fe6d 47bc
00000360: 85df e13c 495d ce3b cd59 df3c ae07 163d
00000370: ae73 78bc 2144 b9bc 7c8d f83c 089d 573c
00000380: 3e3e 5a3a 31fc 5cbc 7824 e43c 07ac 243d
00000390: 19b0 323d 53a6 8cbc f535 56bc a560 a8bb
000003a0: 6432 1abd bbe3 0abb 9132 d53c a9e6 e93b
000003b0: 42d4 953c bb21 2f3c 33b2 403d d497 70bb
000003c0: b460 06bc 98aa d03c b01a 0c3d b52b 78bc
000003d0: ec8d 27bd 9f3c 9abd 7783 6fbd 02a4 0cbc
000003e0: 84ba acbc b6c1 3dbc 11e4 243d c4fa 15bc
000003f0: eb64 373c 22c7 873b 8b60 94bb 5009 073b

fc1.bias f4 [84]
0.0081628235 -0.0068841185 -0.017722087 -0.020873327 -0.031144725 -0.037464358 -0.0057610935 -0.0014810498
0.030670596 -0.024204908 0.01963047 -0.0015194676 -2.346152e-05 0.014794096 -0.033255823 -0.000116562805
0.017242847 0.020716222 0.025446039 -0.0082874475 -0.00014895567 -0.031889427 0.005425908 -0.04514067
0.020037709 -0.019423865 0.02982313 0.0016470012 -0.034796167 -0.024205439 0.030851454 0.023570912
0.038044292 -0.032334775 0.030037137 -0.029343862 0.0187411 -0.02736323 -0.04189019 -0.0062930156
-0.010493667 -0.015137768 -0.01493607 0.02631702 -0.0167314 -0.00014863559 0.0067060324 0.01159847
-0.022183044 0.01919693 0.038512774 -0.032128256 -0.020652939 -0.00039815082 0.035966262 -0.009686347
0.022696543 0.005161091 0.03936368 0.029328093 -0.0097991275 -0.038448516 -0.009619482 -0.0240317
-0.023553139 -0.005305412 0.036538612 0.008023973 0.03392492 -0.015582736 0.04606586 -0.010815339
0.04261157 0.023825424 -0.04680984 -0.024791498 0.05003671 0.02691897 -0.02595259 -0.036659442
0.007198357 -0.03091777 0.008789353 0.014852797
00000000: 5dbd 053c 2c94 e1bb e92d 91bc 8afe aabc
00000010: 3923 ffbc 3a74 19bd 8ec7 bcbb c91f c2ba
00000020: e740 fb3c 5f49 c6bc 14d0 a03c df28 c7ba
00000030: 3bcf c4b7 f062 723c 4237 08bd 2e73 f4b8
00000040: df40 8d3c 11b5 a93c 3674 d03c 13c8 07bc
00000050: fc30 1cb9 7d9e 02bd d1cb b13b 6ce5 38bd
00000060: 1f26 a43c cc1e 9fbc a34f f43c 31e0 d73a
00000070: 6d86 0ebd 7c4a c6bc 30bc fc3c c917 c13c
00000080: 55d4 1b3d 7871 04bd 7110 f63c 8a62 f0bc
00000090: ef86 993c da28 e0bc 0c95 2bbd a435 cebb
000000a0: a1ed 2bbc 6704 78bc 6bb6 74bc cb96 d73c
000000b0: 4a10 89bc 10db 1bb9 47be db3b 8207 3e3c
000000c0: 37b9 b5bc e142 9d3c 92bf 1d3d eb98 03bd
000000d0: 5a30 a9bc e6be d0b9 5c51 133d 7cb3 1ebc
000000e0: 1aee b93c 5f1e a93b cf3b 213d 7841 f03c
000000f0: 858c 20bc 317c 1dbd 089b 1dbc 21de c4bc
00000100: 83f2 c0bc 06d9 adbb 83a9 153d fb76 033c
00000110: dbf4 0a3d bb4e 7fbc 8eaf 3c3d d232 31bc
00000120: 7889 2e3d 892d c33c adbb 3fbd 8a17 cbbc
00000130: 4bf3 4c3d 2c85 dc3c 879a d4bc 3628 16bd
00000140: 32e0 eb3b 4347 fdbc 3801 103c 2559 733c

fc2.weight f4 [10, 84]
0.08184843 0.04046027 0.044891834 -0.038884297 -0.14885134 0.0051767356 -0.031370085 -0.18588108
-0.14289525 0.07931973 0.037373785 -0.08231862 0.043974087 0.04284852 -0.028407224 -0.14502542
0.12338433 0.012125065 0.06896379 -0.044636626 0.015997162 -0.09570328 0.090920195 0.07520205
0.019282145 0.061689556 0.030522205 -0.03278556 0.031231984 -0.058981054 0.021943383 0.0684166
-0.07417489 -0.13816804 -0.06503868 -0.052364834 0.011984874 0.039222367 -0.1300347 0.027685037
0.1309185 -0.038085792 0.10248798 -0.06700302 0.12314929 5.101791e-19 -0.03605072 0.018608972
0.037985798 -0.08027121 0.116670854 0.09310952 -0.15136161 0.035645116 -0.13783135 3.0039491e-05
0.0073430254 0.002008138 -0.04788486 0.06623034 -0.056784198 0.02916772 -0.00043428905 0.028272418
-0.051513202 0.0988917 -0.0042056576 0.11309331 0.07044294 0.05657563 -0.18061484 -0.15194263
0.0056819622 0.08619623 0.12648404 -0.03858855 -0.013203554 0.12183504 -0.03564138 -0.11304827
-0.041492697 -0.05540059 -0.06776787 0.008293227 0.080106065 0.06955925 0.073919125 0.003635292
0.084715106 0.002877269 0.05584922 -0.09530069 -0.05924505 -0.14959452 -0.030943636 0.007157408
0.10351035 0.08353974 -0.0014390124 0.099900745 -0.080444716 -0.015726704 -0.11842314 8.618609e-05
0.10254075 -0.055822082 0.0058194897 -0.10698903 -0.105292685 -0.14894667 -0.06390964 0.013562171
-0.030773431 0.013898441 0.09918708 0.09883783 0.08874696 -0.08469848 -0.023576392 0.07493077
-0.090224676 -0.16703409 0.022939196 0.05907773 0.09713141 0.0016868373 -0.08885407 -0.16397151
-0.09535269 -1.9983784e-18 0.0139876185 0.09194764 -0.0057353657 0.058481976 0.03943341 0.112190686
-0.001295735 -0.0076031582 0.107607365 1.573073e-05 -0.03977221 0.04093754 0.08003583 -0.10709376
0.11673689 0.03530666 -0.0005020585 -0.055362664 -0.101437375 -0.060172815 0.11816096 -0.0976048
0.077288836 0.026351737 -0.09563846 0.07211414 0.13710842 0.104504496 -0.08836936 -0.062253498
-0.06362642 -0.11331269 -0.07757808 0.014640549 0.016357763 -0.04761198 0.034959864 -0.17948902
0.04926851 -0.06810185 -0.13222374 0.08550437 0.056037672 -0.04763243 -0.0013503769 -0.09655995
0.079693705 0.047204882 -0.019552052 -0.063562974 0.11519707 -0.13621873 -0.030583315 0.10486919
0.06564347 0.033924185 -0.124744646 0.00069112564 0.06573 -0.12966274 0.09240414 0.079657756
0.11649574 -0.01749055 -0.039757147 0.0059694103 0.019498251 -0.13707352 -0.061917078 -0.11355339
-0.044337574 -0.002580113 0.005793728 0.07361894 0.017034022 0.0367066 0.039660435 0.11326595
0.014067532 -0.0013285078 0.038210362 -0.08519264 -0.06783422 -6.091748e-18 -0.01155049 -0.114715174
-0.00082205 0.068221316 0.13177165 -0.06739781 0.010443484 -0.019117726 0.102776796 -6.873627e-05
-0.0009640837 -0.0345874 0.04714478 0.0673485 0.118375815 0.057881154 0.017837532 -0.17250164
0.079441205 0.050659087 0.07865372 -0.12564458 0.08432146 0.026924754 -0.13987052 0.03182992
-0.13988222 -0.15447553 0.07803256 0.022709874 -0.013152054 0.11512518 -0.018492538 0.0227975
0.07152423 0.104452126 -0.1596593 -0.04169507 0.07948832 0.04625433 -0.028469004 -0.045312908
00000000: 26a0 a73d abb9 253d 80e0 373d 2445 1fbd
00000010: 7c6c 18be 9ba1 a93b eb7d 00bd 9c57 3ebe
00000020: 2253 12be 6272 a23d 4115 193d aa96 a8bd
00000030: 2c1e 343d ee81 2f3d 44b6 e8bc 8b81 14be
00000040: ecb0 fc3d 35a8 463c e33c 8d3d e5d4 36bd
00000050: 7b0c 833c 1500 c4bd 5e34 ba3d 8803 9a3d
00000060: 97f5 9d3c 30ae 7c3d b409 fa3c 274a 06bd
00000070: 38da ff3c 1e96 71bd 9cc2 b33c 011e 8c3d
00000080: 01e9 97bd ec7b 0dbe 0033 85bd 827c 56bd
00000090: 345c 443c a2a7 203d d127 05be bbcb e23c
000000a0: 800f 063e d9ff 1bbd 38e5 d13d e138 89bd
000000b0: b235 fc3d 0b94 1621 eba9 13bd d871 983c
000000c0: ff96 1b3d 3b65 a4bd 21f1 ee3d 34b0 be3d
000000d0: 8afe 1abe 9d00 123d a923 0dbe 51fd fb37
000000e0: c39d f03b f79a 033b ea22 44bd c6a3 873d
000000f0: 8c96 68bd 24f1 ee3c 4ab1 e3b9 8f9b e73c
00000100: 82ff 52bd bb87 ca3d 9dcf 89bb 779d e73d
00000110: 6344 903d d9bb 673d 19f3 38be d996 1bbe
00000120: c12f ba3b a687 b03d 0885 013e 070f 1ebd
00000130: b853 58bc a684 f93d b2fc 11bd da85 e7bd
00000140: 3ff4 29bd bbeb 62bd e2c9 8abd 51e0 073c
00000150: a60e a43d 1475 8e3d e962 973d 143e 6e3b
00000160: 1d7f ad3d 9090 3c3b 27c2 643d 022d c3bd
00000170: f0aa 72bd 4e2f 19be 827d fdbc b188 ea3b
00000180: 3cfd d33d e216 ab3d 3e9d bcba c398 cc3d
00000190: 33c0 a4bd 4ad5 80bc d587 f2bd cebe b438
000001a0: e200 d23d b2a5 64bd 6bb1 be3b 111d dbbd
000001b0: b1a3 d7bd 7a85 18be 0fe3 82bd de33 5e3c
000001c0: 9018 fcbc 49b6 633c 9922 cb3d 7d6b ca3d
000001d0: f7c0 b53d 6676 adbd 4723 c1bc 4e75 993d
000001e0: b7c7 b8bd fc0a 2bbe fbea bb3c 7dfb 713d
000001f0: d5ec c63d de18 dd3a 1ff9 b5bd 26e8 27be
00000200: 4548 c3bd 4d74 13a2 532c 653c 0b4f bc3d
00000210: bcef bbbb cc8a 6f3d ed84 213d 3bc4 e53d
00000220: a7d5 a9ba ea23 f9bb 4061 dc3d 7cf5 8337
00000230: 2fe8 22bd 1fae 273d d3e9 a33d f953 dbbd
00000240: c013 ef3d b79d 103d 939c 03ba f6c3 62bd
00000250: 66be cfbd c577 76bd 60fe f13d 06e5 c7bd
00000260: 9c49 9e3d 99df d73c 19de c3bd 94b0 933d
00000270: 2666 0c3e 7406 d63d fffa b4bd 86fd 7ebd
00000280: 924e 82bd 7c10 e8bd 42e1 9ebd eade 6f3c
00000290: b700 863c c804 43bd 1332 0f3d f8cb 37be
000002a0: c7cd 493d fc78 8bbd a965 07be ea1c af3d
000002b0: c287 653d 391a 43bd 21ff b0ba 39c1 c5bd
000002c0: 7436 a33d e859 413d a02b a0bc 4e2d 82bd
000002d0: 71ec eb3d ec7c 0bbe dc89 fabc a8c5 d63d
000002e0: 1570 863d 16f4 0a3d 1f7a ffbd a82c 353a
000002f0: 739d 863d 4fc6 04be 623e bd3d 9b23 a33d
00000300: 5295 ee3d 5848 8fbc 64d8 22bd 0b9b c33b
00000310: ccba 9f3c 005d 0cbe c39c 7dbd ae8e e8bd
00000320: 519b 35bd 1d17 29bb 50d9 bd3b 87c5 963d
00000330: ef8a 8b3c a959 163d fb72 223d faf7 e73d
00000340: 817b 663c 5321 aeba 7882 1c3d 7b79 aebd
00000350: abec 8abd efbe e0a2 443e 3dbc caef eabd
00000360: d77e 57ba 9eb7 8b3d 26ef 063e dd07 8abd
00000370: 261b 2b3c c79c 9cbc a47c d23d 8126 90b8
00000380: 90ba 7cba 84ab 0dbd e31a 413d 03ee 893d
00000390: 056f f23d ca14 6d3d 0420 923c 45a4 30be
000003a0: 12b2 a23d e77f 4f3d 3415 a13d f9a8 00be
000003b0: bbb0 ac3d 4d91 dc3c 383a 0fbe 1760 023d
000003c0: 493d 0fbe d52e 1ebe 89cf 9f3d 0f0a ba3c
000003d0: b67b 57bc c0c6 eb3d aa7d 97bc d3c1 ba3c
000003e0: 4c7b 923d ffea d53d ba7d 23be 73c8 2abd
000003f0: c6ca a23d 2e75 3d3d d437 e9bc 079a 39bd

fc2.bias f4 [10]
-0.058671698 -0.078458205 0.07444088 -0.04838829 0.07105011 0.0109123355 0.08821474 -0.04296853
0.038274053 -0.0139412945
00000000: bc51 70bd b2ae a0bd 7674 983d cd32 46bd
00000010: b882 913d a7c9 323c eea9 b43d c5ff 2fbd
00000020: 41c5 1c3d 076a 64bc
