weight.pkl (torch, 232702 bytes, 12 tensors)

conv1.0.weight f4 [16, 1, 5, 5]
0.00022571706 -0.021659145 -0.014698076 -0.039703634 -0.13200523 0.02914185 0.026049126 0.07699979
-0.041461058 -0.20884818 -0.028690523 0.022466285 0.29267356 0.32665634 -0.033008736 -0.062955685
-0.09578394 -0.05348058 0.2184196 0.095628545 -0.09125344 -0.14927816 -0.23736931 -0.15730733
-0.00058411574 -0.059767343 0.18089256 0.06489286 -0.36800134 -0.003097215 -0.03033675 0.3141648
0.07933799 -0.28682187 -0.21061525 -0.06682538 0.37603223 -0.09061074 -0.024165187 -0.17386526
0.075879514 -0.048577953 0.11343765 0.0010399154 -0.052930944 0.00023107593 -0.09075817 0.05024971
0.005799755 0.017601518 -0.0056937626 -0.11985963 -0.095901944 -0.060260534 0.1241042 0.07787115
-0.121318266 -0.07701371 0.32327572 0.013312419 -0.09436389 0.08539411 0.28222018 0.30867344
-0.23153429 0.047293082 0.11013728 0.05759466 -0.2543425 -0.2797771 0.06694314 -0.06974657
-0.05085915 -0.16031808 0.12676145 0.12564312 0.05108773 -0.0813807 -0.19052899 -0.012249939
0.062007006 -0.21465838 -0.1680569 -0.003636884 0.1342475 -0.14630412 -0.27190515 0.078878716
0.12241185 0.079580195 -0.14146169 -0.19367985 0.21327446 0.12918705 -0.16007371 -0.17253418
0.07641869 0.1458512 -0.09150377 -0.12764087 0.018635675 -0.11225223 0.032251105 0.037707396
-0.14482144 -0.23236166 0.119666755 0.067958914 -0.012455354 -0.06718103 -0.11024837 0.16051072
0.2701977 -0.28244188 -0.11844386 -0.06592202 0.16235247 0.28015316 -0.22815871 -0.13674581
-0.23611099 0.008695578 0.26405087 -0.13114053 0.06391779 -0.08531527 -0.31990921 -0.128513
0.019925825 0.07153749 -0.15095462 0.10555312 0.3790483 0.21195187 0.10292897 0.123107806
0.23550619 0.0019356373 -0.23474483 -0.24673025 -0.0688573 -0.09541092 -0.23784234 -0.08988594
-0.009025818 -0.03767345 -0.0153536135 0.0350287 0.10735416 0.082840644 -0.057354525 0.20340109
0.07067764 -0.00472804 -0.20578939 -0.11683499 -0.13871352 -0.041532118 0.06266095 -0.18134286
-0.20233324 -0.03536905 -0.020200362 -0.0081228 -0.17723243 0.054753624 -0.07972913 -0.13524051
-0.21614583 -0.07027085 -0.021133766 0.1026965 0.07911028 0.18398102 0.36671877 0.021957416
0.039907724 0.13616017 0.07178111 0.27936378 -0.13957663 -0.09806254 -0.09559583 -0.039825186
-0.10327383 0.07335316 -0.1713391 -0.33316013 -0.20204881 -0.16283892 0.12067827 0.15096973
-0.1426476 -0.10511328 0.1427533 -0.07597403 0.27144548 0.21294709 0.13179274 -0.14901368
0.04726263 -0.18287411 0.14264433 -0.048802465 -0.065135196 -0.022310624 -0.11838597 -0.025381817
0.22704779 0.04236795 0.04407906 0.054326028 -0.15916295 0.27480823 0.3206318 0.07638584
0.08337397 -0.2143641 -0.15905023 0.16517143 -0.25390813 0.049855392 -0.27219015 -0.24950173
-0.0006383834 -0.17652965 -0.065951176 0.20908092 0.17080435 0.123062335 -0.11901279 -0.18035644
0.22018252 0.00675862 -0.0540513 -0.096762635 -0.20456445 0.103513144 0.2308677 -0.022488467
-0.14454171 -0.24027131 -0.0826809 0.0480034 -0.053032707 0.08319772 -0.28408763 -0.25475124
-0.16222933 0.061486118 0.16564582 -0.03388931 -0.019793646 0.078307025 0.06979025 -0.07010157
00000000: 76ae 6c39 856e b1bc 33d0 70bc 47a0 22bd
00000010: 612c 07be e4ba ee3c fa64 d53c 11b2 9d3d
00000020: 12d3 29bd 4cdc 55be 6308 ebbc 370b b83c
00000030: 4fd9 953e 803f a73e 2b34 07bd e9ee 80bd
00000040: 5f2a c4bd 740e 5bbd 63a9 5f3e e6d8 c33d
00000050: 15e3 babd 60dc 18be f110 73be 2c15 21be
00000060: 581f 19ba 9ace 74bd e63b 393e 8ce6 843d
00000070: ac6a bcbe a5fa 4abb c784 f8bc 35da a03e
00000080: f57b a23d 51da 92be 86ab 57be bfdb 88bd
00000090: 4c87 c03e 2092 b9bd 12f6 c5bc bc09 32be
000000a0: b866 9b3d adf9 46bd 0052 e83d c54d 883a
000000b0: 1ece 58bd f94c 7239 6bdf b9bd a4d2 4d3d
000000c0: df0b be3b 0f31 903c be92 babb f778 f5bd
000000d0: 3d68 c4bd c0d3 76bd 582a fe3d e97a 9f3d
000000e0: b675 f8bd 5db9 9dbd 6584 a53e 551c 5a3c
000000f0: db41 c1bd 1be3 ae3d 2a7f 903e 720a 9e3e
00000100: 5317 6dbe 64b6 413d a78f e13d 61e8 6b3d
00000110: 2e39 82be f23e 8fbe 7c19 893d 4ad7 8ebd
00000120: af51 50bd 6c2a 24be c1cd 013e 97a8 003e
00000130: 5e41 513d edaa a6bd 081a 43be f8b3 48bc
00000140: 0ffb 7d3d 68cf 5bbe 1c17 2cbe ca58 6ebb
00000150: 2d78 093e bfd0 15be 2737 8bbe 2a8b a13d
00000160: 10b3 fa3d f1fa a23d 55db 10be 0354 46be
00000170: 9f64 5a3e 9c49 043e 5dea 23be cdac 30be
00000180: 6781 9c3d 045a 153e 5466 bbbd 4ab4 02be
00000190: d8a9 983c 7fe4 e5bd bc19 043d 1273 1a3d
000001a0: 124c 14be 37f0 6dbe d813 f53d 0b2e 8b3d
000001b0: 8b11 4cbc 3596 89bd e6c9 e1bd ec5c 243e
000001c0: 5a57 8a3e 399c 90be b292 f2bd 2002 87bd
000001d0: ba3f 263e 3c70 8f3e 70a2 69be 1807 0cbe
000001e0: 14c7 71be e677 0e3c ad31 873e b449 06be
000001f0: 55e7 823d c6b9 aebd 24cb a3be e998 03be
00000200: 7c3b a33c 3f82 923d d993 1abe 3c2c d83d
00000210: 9e12 c23e e909 593e 6ccc d23d f21f fc3d
00000220: 8928 713e 36b5 fd3a f360 70be dba6 7cbe
00000230: 0e05 8dbd cd66 c3bd f18c 73be 1f16 b8bd
00000240: 06e1 13bc 7a4f 1abd b98d 7bbc 417a 0f3d
00000250: 7fdc db3d 5ba8 a93d 94ec 6abd 6048 503e
00000260: 70bf 903d aded 9abb 74ba 52be 2f47 efbd
00000270: eb0a 0ebe 951d 2abd 6254 803d f1b1 39be
00000280: 7230 4fbe 23df 10bd 3b7b a5bc 7e15 05bc
00000290: 6b7c 35be 5645 603d 0749 a3bd 7d7c 0abe
000002a0: 5555 5dbe 2aea 8fbd b820 adbc 8b52 d23d
000002b0: 9204 a23d 8565 3c3e 90c2 bb3e 0ae0 b33c
000002c0: 4876 233d 926d 0b3e f901 933d c508 8f3e
000002d0: 2ded 0ebe 03d5 c8bd bfc7 c3bd bc1f 23bd
000002e0: 3b81 d3bd 2e3a 963d 8473 2fbe f793 aabe
000002f0: e2e5 4ebe 3fbf 26be 2b26 f73d cf97 1a3e
00000300: 3612 12be a245 d7bd ec2d 123e 4698 9bbd
00000310: e7fa 8a3e cd0e 5a3e adf4 063e 0b97 18be
00000320: 7696 413d 5a43 3bbe 5b11 123e 18e5 47bd
00000330: 9a65 85bd c5c4 b6bc 5874 f2bd 87ed cfbc
00000340: 377f 683e 048a 2d3d 3f8c 343d f884 5e3d
00000350: 9dfb 22be aab3 8c3e da29 a43e 2e70 9c3d
00000360: f9bf aa3d 4382 5bbe 10de 22be b322 293e
00000370: 3f00 82be 2b35 4c3d 825c 8bbe 627d 7fbe
00000380: 2f59 27ba 30c4 34be 6911 87bd 4f19 563e
00000390: 56e7 2e3e 1b08 fc3d fabc f3bd 5caf 38be
000003a0: 8777 613e 6a77 dd3b e564 5dbd 7d2b c6bd
000003b0: 5879 51be b3fe d33d 9568 6c3e bc39 b8bc
000003c0: be02 14be af09 76be 9b54 a9bd 379f 443d
000003d0: d338 59bd 9163 aa3d ef73 91be c16e 82be
000003e0: 721f 26be ded8 7b3d 0f9f 293e 84cf 0abd
000003f0: 4926 a2bc 6f5f a03d 31ee 8e3d 6991 8fbd

conv1.0.bias f4 [16]
-0.0031185746 0.0037275297 0.000110571265 0.0043187225 0.0011886896 -0.011864359 0.0033815536 0.0046067904
-0.0022557317 -0.0009291468 -0.0010621875 0.0036775875 -0.0021485277 -0.006540062 0.0017884822 -0.0026992077
00000000: 0061 4cbb 9249 743b 7fe2 e738 1284 8d3b
00000010: cecd 9b3a ba62 42bc 0e9d 5d3b 8ff4 963b
00000020: e6d4 13bb fc91 73ba 1939 8bba ae03 713b
00000030: 50ce 0cbb 044e d6bb 816b ea3a 31e5 30bb

conv1.1.weight f4 [16]
1.1265669 1.0227983 1.2138236 0.91005194 0.94824314 1.086052 1.0065044 1.0891037
0.98956555 1.0034335 0.8313738 1.0101192 1.0699384 1.2796135 1.0991024 0.91304165
00000000: 5833 903f 0eeb 823f 925e 9b3f 2af9 683f
00000010: 10c0 723f c003 8b3f 23d5 803f c067 8b3f
00000020: 2b54 7d3f 8270 803f ead4 543f 964b 813f
00000030: bef3 883f 60ca a33f 63af 8c3f 19bd 693f

conv1.1.bias f4 [16]
-0.40105653 -0.25229895 -0.3783305 -0.3882301 -0.38328874 -0.31596047 -0.16034834 -0.27546355
-0.32544667 -0.2906492 -0.26123682 -0.18916565 -0.09742861 -0.002534529 -0.12209129 -0.19700591
00000000: 4857 cdbe 542d 81be 89b4 c1be 18c6 c6be
00000010: 6c3e c4be 92c5 a1be 5b32 24be 8f09 8dbe
00000020: f2a0 a6be f9cf 94be d5c0 85be a4b4 41be
00000030: a788 c7bd 571a 26bb 000b fabd ebbb 49be

conv1.1.running_mean f4 [16]
-0.053523183 -0.034458686 -0.0014066063 -0.132701 -0.06321737 -0.05657531 -0.10208212 -0.028385563
-0.040691808 -0.15798824 0.0087924935 -0.12030265 -0.054947596 -0.18566331 -0.0066396818 -0.018873984
00000000: 203b 5bbd 8d24 0dbd e05d b8ba c5e2 07be
00000010: 1c78 81bd 83bb 67bd 6e10 d1bd d788 e8bc
00000020: 74ac 26bd abc7 21be 640e 103c 3c61 f6bd
00000030: bb10 61bd 861e 3ebe b091 d9bb 9d9d 9abc

conv1.1.running_var f4 [16]
0.03606097 0.0826882 0.047156014 0.083188266 0.051371902 0.036349032 0.07071349 0.05462703
0.058793217 0.12982358 0.039986115 0.09877067 0.16546948 0.14455178 0.0803192 0.07094092
00000000: abb4 133d 6e58 a93d aa26 413d 9c5e aa3d
00000010: 586b 523d b9e2 143d 3cd2 903d 98c0 5f3d
00000020: 28d1 703d 79f0 043e 7bc8 233d 4748 ca3d
00000030: d570 293e 6205 143e 657e a43d 7949 913d

conv2.0.weight f4 [32, 16, 5, 5]
-0.18048859 -0.030404065 0.0043121185 -0.065097876 -0.07000674 -0.09653337 0.009436583 0.1675792
0.03499855 0.046027806 -0.0032451828 -0.11530658 0.019388815 0.00858663 -0.03938026 0.06906182
0.20853081 0.059709936 -0.050845984 -0.0918847 -0.08535068 -0.027517544 0.053354744 0.09489597
-0.08045078 0.038113795 -0.01237283 0.18938528 0.014527223 0.045185726 -0.107109934 -0.04887211
0.013664195 -0.11219746 0.012881088 -0.09112847 0.021973401 -0.20383142 -0.04652 -0.017210094
-0.14337781 0.047987092 0.03977661 0.007330356 -0.092559636 -0.052971344 0.08964617 0.10606494
0.03470816 -0.0586386 0.086691916 0.117539026 0.05898461 0.0011266258 0.08007656 0.07547203
0.09500065 0.025091967 0.11030631 0.0635201 0.0046988907 -0.04305474 -0.037349094 -0.06820661
-0.24451745 -0.17105125 0.0068231914 -0.0047319927 -0.071909025 -0.083825625 -0.027066426 -0.021941869
-0.03805383 0.06457365 0.0005908551 -0.05675402 0.18385379 0.018031608 -0.011369659 0.0043444457
0.037742056 0.06265147 -0.019049322 -0.05682969 -0.14144903 -0.09114967 -0.047941584 -0.053863484
-0.021534279 -0.06731135 -0.12495503 -0.07787052 -0.009357647 0.04082766 -0.057153758 -0.05976439
-0.043330405 0.045017127 -0.049615595 -0.08976505 0.034152925 0.0020937168 0.091870956 -0.03505287
-0.019269593 -0.13512711 0.08682348 -0.022879455 0.012664978 0.042689618 -0.061858635 0.085714765
-0.18834494 -0.0006576172 -0.06824559 -0.055923812 0.07191111 0.07404803 0.10735922 -0.10521852
0.057614267 0.11937715 -0.004482123 0.102384344 0.018663159 0.07474887 0.103031546 0.13667515
0.06729531 0.07184839 -0.16839275 0.15421957 0.029854255 0.17867866 0.1076874 0.0008153407
0.20731871 -0.025984216 -0.060281605 -0.18034038 -0.05693913 -0.11143206 0.05694717 -0.05018943
-0.13970739 0.13868548 0.007462476 -0.08482816 -0.001097045 0.04702914 0.016241992 -0.0888618
-0.056281954 -0.0053146617 -0.029915512 -0.028925553 -0.18764019 -0.20372999 -0.059034605 -0.06934552
0.04528646 0.021902682 0.022297688 -0.025386842 -0.021172615 0.11697695 0.0405743 0.041004352
0.03000709 -0.052775234 -0.028970828 -0.06367828 -0.09752716 -0.041630447 -0.018188573 0.08459841
0.022562748 0.023037227 0.03343827 -0.019574773 -0.012594931 -0.14494035 -0.13823026 -0.15618163
-0.09720781 -0.11264338 0.22118121 0.18360247 -0.012809989 -0.041837797 0.07168182 0.08199259
0.053613935 0.01741131 -0.008222178 0.03605179 0.060932323 -0.14368458 -0.14726548 -0.07045429
-0.08575541 0.018166034 -0.03939135 -0.008115825 -0.07590131 -0.1629242 0.109706074 0.064543605
0.09081674 0.038319718 -0.101679176 0.0030256098 -0.017425595 -0.04731427 -0.04303125 0.025437126
-0.020358676 0.0071086343 -0.1727843 -0.06609217 0.018785391 -0.0024230722 0.009410774 0.08845552
-0.03215582 -0.0952168 0.05635903 0.08623292 -0.09716088 -0.108501084 -0.13111375 0.0003139872
0.008530902 -0.07942586 -0.046391785 -0.062110767 -0.11169544 0.015365935 -0.040126603 -0.06545602
-0.104690306 -0.07070986 -0.073077485 -0.07327183 -0.055622637 -0.035517458 0.008465061 -0.0010868706
0.075570494 -0.03004355 -0.008125932 -0.052648894 -0.04726236 -0.014675339 0.0084032705 -0.0033665781
00000000: 00d2 38be f211 f9bc ac4c 8d3b 0952 85bd
00000010: b25f 8fbd 4ab3 c5bd e69b 1a3c e299 2b3e
00000020: a45a 0f3d a787 3c3d 22ad 54bb db25 ecbd
00000030: 4bd5 9e3c f0ae 0c3c 324d 21bd 4970 8d3d
00000040: 1a89 553e 6892 743d e143 50bd 0c2e bcbd
00000050: 56cc aebd 796c e1bc 818a 5a3d d158 c23d
00000060: 61c3 a4bd 361d 1c3d 69b7 4abc 37ee 413e
00000070: 9703 6e3c ab14 393d 745c dbbd 1f2e 48bd
00000080: cadf 5f3c c8c7 e5bd 330b 533c 90a1 babd
00000090: 9001 b43c 2fb9 50be c18b 3ebd 2ffc 8cbc
000000a0: a2d1 12be 1d8e 443d ccec 223d 7c33 f03b
000000b0: e88f bdbd 7bf8 58bd 6998 b73d 9338 d93d
000000c0: 252a 0e3d 072f 70bd 888b b13d 4db8 f03d
000000d0: d999 713d 4aab 933a 2eff a33d 1491 9a3d
000000e0: b38f c23d ab8d cd3c 46e8 e13d d416 823d
000000f0: 27f9 993b 2b5a 30bd 5dfb 18bd e8af 8bbd
00000100: c862 7abe 0f28 2fbe 1495 df3b d50e 9bbb
00000110: 0a45 93bd c5ac abbd 69ba ddbc 6fbf b3bc
00000120: 55de 1bbd 313f 843d 9de3 1a3a e776 68bd
00000130: 2b44 3c3e 06b7 933c ce47 3abc da5b 8e3b
00000140: 6a97 1a3d 6a4f 803d 530d 9cbc 40c6 68bd
00000150: 04d8 10be aeac babd 655e 44bd f59f 5cbd
00000160: a868 b0bc 88da 89bd 6ce8 ffbd 947a 9fbd
00000170: d150 19bc e83a 273d 0f1a 6abd 81cb 74bd
00000180: 397b 31bd e163 383d b939 4bbd bdd6 b7bd
00000190: f0e3 0b3d bd36 093b d726 bc3d 9993 0fbd
000001a0: 44db 9dbc c35e 0abe 82d0 b13d b26d bbbc
000001b0: c580 4f3c 4fdb 2e3d 7b5f 7dbd 398b af3d
000001c0: 7fdd 40be f163 2cba 58c4 8bbd 5e10 65bd
000001d0: 2246 933d 7ea6 973d 27df db3d cf7c d7bd
000001e0: f0fc 6b3d 027c f43d c6de 92bb e2ae d13d
000001f0: 7be3 983c f015 993d 3402 d33d 92f4 0b3e
00000200: 20d2 893d 4025 933d 266f 2cbe bceb 1d3e
00000210: e990 f43c 8af7 363e 368b dc3d 97bc 553a
00000220: 5b4b 543e dadc d4bc d8e9 76bd 26ab 38be
00000230: 0139 69bd 7e36 e4bd 7041 693d 6f93 4dbd
00000240: 740f 0fbe 9103 0e3e c987 f43b 63ba adbd
00000250: b9ca 8fba a1a1 403d ed0d 853c 2dfd b5bd
00000260: e887 66bd 9d26 aebb 6011 f5bc 48f5 ecbc
00000270: c024 40be 989e 50be 45ce 71bd 0605 8ebd
00000280: 4c7e 393d 416d b33c a4a9 b63c 11f8 cfbc
00000290: 3172 adbc 9c91 ef3d 3d31 263d 2ef4 273d
000002a0: 6ed1 f53c d82a 58bd 3b54 edbc c269 82bd
000002b0: 52bc c7bd b084 2abd 3400 95bc ee41 ad3d
000002c0: 83d5 b83c 91b8 bc3c 91f6 083d 465b a0bc
000002d0: f85a 4ebc 3e6b 14be 3c8c 0dbe 14ee 1fbe
000002e0: e314 c7bd 93b1 e6bd 547d 623e 4902 3c3e
000002f0: fde0 51bc 1c5e 2bbd ebcd 923d bbeb a73d
00000300: 499a 5b3d 2aa2 8e3c 50b6 06bc 0bab 133d
00000310: 2c94 793d 0d22 13be c3cc 16be 574a 90bd
00000320: 88a0 afbd efd0 943c d358 21bd 3df8 04bc
00000330: 2572 9bbd 9ad5 26be 94ad e03d 702f 843d
00000340: 21fe b93d 23f5 1c3d 2c3d d0bd 4f49 463b
00000350: 1fc0 8ebc 9ccc 41bd 8941 30bd 8561 d03c
00000360: 3dc7 a6bc 8cef e83b 5eee 30be 555b 87bd
00000370: d2e3 993c 68cc 1ebb a62f 1a3c 2b28 b53d
00000380: d2b5 03bd 0701 c3bd bad8 663d e39a b03d
00000390: 49fc c6bd d135 debd af42 06be a69e a439
000003a0: 32c5 0b3c 06aa a2bd 5005 3ebd dc67 7ebd
000003b0: 94c0 e4bd 67c1 7b3c cb5b 24bd ce0d 86bd
000003c0: df67 d6bd 55d0 90bd a6a9 95bd 8b0f 96bd
000003d0: 90d4 63bd c17a 11bd 0ab1 0a3c 5375 8eba
000003e0: b4c4 9a3d e41d f6bc a122 05bc 5ea6 57bd
000003f0: 2d96 41bd d570 70bc dfad 093c cfa1 5cbb

conv2.0.bias f4 [32]
-0.08075888 -0.06858967 -0.15192677 -0.10078692 -0.06597658 0.0757573 -0.10144707 -0.035261363
-0.050879195 -0.071994215 -0.062526256 -0.13131052 -0.10257097 -0.046020508 -0.051515322 -0.042051546
-0.026272228 -0.105192855 0.043829016 0.0024006069 -0.07596564 -0.0394806 -0.08437576 -0.0008290783
-0.071546175 -0.06380529 -0.03259305 -0.04254147 -0.06132401 -0.10551874 -0.11100389 -0.076814614
00000000: e964 a5bd be78 8cbd b192 1bbe 5f69 cebd
00000010: bb1e 87bd a526 9b3d 7bc3 cfbd 386e 10bd
00000020: b466 50bd b471 93bd c40d 80bd 4476 06be
00000030: bb10 d2bd 0080 3cbd bb01 53bd 3e3e 2cbd
00000040: db38 d7bc 5a6f d7bd 0e86 333d 8053 1d3b
00000050: e093 9bbd 69b6 21bd 33cd acbd 8156 59ba
00000060: cd86 92bd 59ac 82bd 4a80 05bd f73f 2ebd
00000070: e32e 7bbd 361a d8bd 0256 e3bd fb50 9dbd

fc1.weight f4 [84, 512]
0.061263546 0.005597562 0.017312685 0.006038247 -0.07817843 -0.02003831 -0.07959333 -0.0907512
-0.045087587 -0.0016723147 0.06393168 0.04416453 -0.0887717 0.014125258 0.13594082 0.040474724
0.01229785 -0.07287159 0.041673522 0.033746496 -0.012733362 -0.06184474 -0.071956515 0.02963828
-0.001526248 -0.08986099 -0.05615727 -0.00889473 0.022540078 -0.05667446 0.009703387 -0.040925182
0.045993134 0.0437645 0.10232312 0.02493272 -0.114846736 0.06208408 0.05955591 0.008507981
-0.18517184 0.006810518 -0.05556753 -0.0051647383 -0.07294652 0.047796533 0.017351527 -0.019310823
0.019852633 0.0550398 0.06850141 0.011026727 -0.094155215 -0.037988033 0.07539304 -0.030369971
-0.033681735 0.011985013 0.04621941 -0.11714993 0.043246485 0.038763646 0.016015008 -0.048346724
-0.008990206 -0.07928274 -0.033824466 -0.090593696 0.044855494 0.11373583 0.09761187 0.053464465
0.066741124 0.056919023 0.092828155 -0.056003854 0.017237775 0.07456574 -0.0168381 0.09796614
-0.0024333526 0.019990236 -0.0078034936 -0.07677846 0.06856548 0.028153086 -0.043132745 0.0024608388
0.22193298 0.15756226 0.11318552 -0.113214836 0.12728617 0.047295675 -0.01836313 0.0067999954
0.08982249 0.18227498 0.15320113 -0.06399921 -0.0030417917 0.035378255 -0.014197967 -0.0063571394
-0.015147488 -0.19062614 -0.13406326 -0.0064705564 -0.077113464 -0.11953749 -0.060594585 0.03562549
-0.026678078 0.030120721 0.084152795 0.025327606 -0.10459286 0.0707232 -0.019229904 0.0618577
0.028416106 0.10423311 -0.116821095 -0.004974101 -0.025613662 -0.0040076636 -0.01828889 0.025911279
0.063020706 0.070448235 0.19698624 0.138888 -0.015971048 -0.059721284 0.08690146 0.05684193
0.036078982 -0.030079959 -0.007951351 -0.101960026 0.061923765 0.052143287 0.08169928 -0.039454002
0.06563165 -0.049032155 -0.16375478 -0.013407733 0.018510606 -0.023798341 -0.099276766 -0.044272628
-0.07542028 -0.018322537 -0.0735939 -0.028402276 0.040196203 0.015887326 0.08420745 0.036890715
-0.1672886 0.010236773 -0.01470148 -0.0060942383 -0.06787536 -0.010462914 0.08714948 0.08110695
-0.04795313 0.110819824 0.09498133 0.030472491 -0.12576023 0.014926134 0.0014326087 -0.022013403
-0.09063936 -0.27731162 -0.05520768 0.0059171696 -0.12690176 -0.17174877 -0.009049146 0.03092439
-0.108269975 -0.18448347 0.06589619 0.06808723 0.029456062 -0.014101714 -0.019162294 -0.023775002
-0.03977388 0.09333043 0.074596085 0.048332576 -0.15960623 -0.0754929 0.012264768 -0.042175606
-0.0477629 -0.01928982 -0.010567218 0.023049267 -0.04728387 0.015136051 -0.02331742 -0.046801433
-0.15920533 -0.03677518 -0.040960714 0.018143808 -0.05555489 -0.057008605 -0.084006816 0.027486186
0.0003169776 0.015589648 -0.048826206 0.0068130386 0.036831763 0.10366287 0.01249016 0.085563794
-0.055663582 0.14199112 0.04423401 0.116832234 0.019778064 0.021727836 0.08009061 0.086856924
-0.08210067 0.0023332832 -0.017962694 -0.03439845 -0.13581267 0.061018206 0.030106718 0.07559058
0.025193162 0.10209088 0.13676308 0.013487266 -0.0007978238 -0.13947684 -0.0047055115 0.02759762
0.055752724 0.03818867 -0.10128193 -0.051065467 -0.001234036 0.088218495 -0.04906979 0.0013710802
00000000: 7cef 7a3d c16b b73b 55d3 8d3c 7ddc c53b
00000010: 031c a0bd 6227 a4bc d401 a3bd c4db b9bd
00000020: c3ad 38bd 9231 dbba 9dee 823d dee5 343d
00000030: f0cd b5bd a06d 673c 1234 0b3e d3c8 253d
00000040: ec7c 493c b33d 95bd dbb1 2a3d c439 0a3d
00000050: 979f 50bc e950 7dbd f05d 93bd facb f23c
00000060: 620c c8ba 0a09 b8bd 2a05 66bd 34bb 11bc
00000070: f8a5 b83c 7b23 68bd f4fa 1e3c 2aa1 27bd
00000080: 4c63 3c3d 6842 333d c98e d13d b43f cc3c
00000090: c434 ebbd e04b 7e3d e6f0 733d 0f65 0b3c
000000a0: b09d 3dbe c42a df3b c79a 63bd f73c a9bb
000000b0: fc64 95bd 4cc6 433d ca24 8e3c bb31 9ebc
000000c0: fda1 a23c 6a71 613d 784a 8c3d 72a9 343c
000000d0: 73d4 c0bd 5799 1bbd ab67 9a3d 72ca f8bc
000000e0: dcf5 09bd ca5c 443c 9050 3d3d 4dec efbd
000000f0: 3a23 313d a1c6 1e3d e831 833c 3707 46bd
00000100: a84b 13bc fd5e a2bd 868b 0abd 3089 b9bd
00000110: 65ba 373d 55ee e83d bbe8 c73d 8efd 5a3d
00000120: 92af 883d ec23 693d b01c be3d 4c64 65bd
00000130: 3c36 8d3c ecb5 983d 0ef0 89bc 79a2 c83d
00000140: e278 1fbb 90c2 a33c 73b4 ffbb 063e 9dbd
00000150: 0f6c 8c3d 4da1 e63c f6ab 30bd 0646 213b
00000160: 6642 633e 0058 213e cfcd e73d 2edd e7bd
00000170: 4e57 023e 1cb9 413d 466e 96bc 7fd2 de3b
00000180: dbf4 b73d 4ba6 3a3e c2e0 1c3e 0512 83bd
00000190: cc58 47bb cae8 103d 979e 68bc 8d4f d0bb
000001a0: 2b2d 78bc 8033 43be e147 09be f606 d4bb
000001b0: aaed 9dbd 12d0 f4bd 0732 78bd 09ec 113d
000001c0: fc8b dabc bbbf f63c 4d58 ac3d d77b cf3c
000001d0: c834 d6bd 53d7 903d 0888 9dbc 805e 7d3d
000001e0: e5c8 e83c 2b78 d53d e63f efbd c9fd a2bb
000001f0: bed3 d1bc b852 83bb 95d2 95bc e443 d43c
00000200: 0011 813d 2a47 903d c3b6 493e a838 0e3e
00000210: b7d5 82bc 4e9e 74bd 65f9 b13d 15d3 683d
00000220: 8ec7 133d 3f6a f6bc 6246 02bc 6bd0 d0bd
00000230: c6a3 7d3d 3394 553d f451 a73d 859a 21bd
00000240: e369 863d f1d5 48bd 55af 27be 1cac 5bbc
00000250: 8ea3 973c bdf4 c2bc 9e51 cbbd 3757 35bd
00000260: f375 9abd 2519 96bc 66b8 96bd e4ab e8bc
00000270: c6a4 243d 2326 823c f574 ac3d b81a 173d
00000280: b44d 2bbe 23b8 273c 7ade 70bc 2db2 c7bb
00000290: 3d02 8bbd a46c 2bbc 6d7b b23d 671b a63d
000002a0: 806a 44bd 81f5 e23d 9285 c23d 72a1 f93c
000002b0: 4ac7 00be be8c 743c 5fc6 bb3a 7455 b4bc
000002c0: 21a1 b9bd cafb 8dbe 7321 62bd d1e4 c13b
000002d0: 89f2 01be e9de 2fbe df42 14bc 2555 fd3c
000002e0: a6bc ddbd 3ce9 3cbe 95f4 863d 5171 8b3d
000002f0: d74d f13c e00a 67bc 3efa 9cbc cbc3 c2bc
00000300: f0e9 22bd 0624 bf3d d5c5 983d 61f8 453d
00000310: d16f 23be 069c 9abd 2af2 483c 54c0 2cbd
00000320: 08a3 43bd af05 9ebc 2022 2dbc d1d1 bc3c
00000330: bbac 41bd 33fd 773c 2d04 bfbc dcb2 3fbd
00000340: b906 23be 92a1 16bd 6cc6 27bd 53a2 943c
00000350: 868d 63bd db81 69bd c40b acbd b62a e13c
00000360: 0330 a639 b96b 7f3c fdfd 47bd e93f df3b
00000370: e7dc 163d 334d d43d 87a3 4c3c 123c af3d
00000380: 7fff 63bd 1f66 113e b92e 353d bd45 ef3d
00000390: 9b05 a23c 93fe b13c 8c06 a43d 0be2 b13d
000003a0: 6524 a8bd ffe9 183b 8026 93bc 64e5 0cbd
000003b0: 7a12 0bbe 3aee 793d 5da2 f63c 3ccf 9a3d
000003c0: e461 ce3c 0615 d13d 9f0b 0c3e b2f9 5c3c
000003d0: 0d25 51ba 04d3 0ebe b130 9abb 6714 e23c
000003e0: f85c 643d b96b 1c3d e76c cfbd 062a 51bd
000003f0: 61bf a1ba e6ab b43d 67fd 48bd d1b5 b33a

fc1.bias f4 [84]
0.003302584 -0.094435796 -0.00023511553 -0.06519362 -0.058023218 -0.04894207 -0.044986945 -0.044004146
-0.008301766 -0.0701968 -0.0512105 -0.06163032 -0.01238492 -0.014820975 0.01040649 -0.0071816067
-0.029707378 -0.022197794 0.015895912 -0.0995833 0.0048200605 -0.10823928 0.005875762 -0.076635785
-0.039643645 -0.0038761122 -0.00674395 -0.033747174 -0.0037536114 -0.0058401045 0.028938994 -0.03872962
-0.005851205 -0.03871729 -0.0068638427 -0.074944265 -0.03634433 -0.059568368 0.0064775855 -0.019809393
-0.06035274 -0.044556845 -0.005086262 -0.02659103 -0.03956624 -0.015337586 -0.03908618 -0.021718703
-0.01728984 0.012127095 0.01432197 -0.026747396 -0.058752608 -0.066765964 -0.016720481 -0.058552653
-0.035833757 -0.03619006 0.044199165 -0.0051134084 -0.04917134 -0.05381308 0.0015863347 0.0075993687
-0.013184635 -0.037963077 -0.0031093145 -0.013101848 0.00075295335 -0.0019365593 -0.018067256 0.0049309786
0.043962415 0.03605591 -0.058243763 -0.05742326 -0.018627847 -0.07258716 -0.03434691 -0.014212348
-0.02256792 -0.05360291 0.015502975 -0.08220598
00000000: 2a70 583b 8e67 c1bd 5889 76b9 3c84 85bd
00000010: c1a9 6dbd 7b77 48bd 3b44 38bd b13d 34bd
00000020: 2104 08bc 57c3 8fbd 1ac2 51bd 1370 7cbd
00000030: 1fea 4abc add3 72bc fc7f 2a3c af53 ebbb
00000040: e35c f3bc 26d8 b5bc 2538 823c 54f2 cbbd
00000050: 99f1 9d3b 8eac ddbd 7789 c03b 39f3 9cbd
00000060: 6061 22bd 5f06 7ebb 5afc dcbb 7a3a 0abd
00000070: 26ff 75bb 595e bfbb 7811 ed3c f3a2 1ebd
00000080: 77bb bfbb 0596 1ebd 16ea e0bb 617c 99bd
00000090: cbdd 14bd f6fd 73bd ed41 d43b 4f47 a2bc
000000a0: 6f34 77bd 3d81 36bd a8aa a6bb 6fd5 d9bc
000000b0: 3610 22bd 804a 7bbc d518 20bd 6ceb b1bc
000000c0: 6ca3 8dbc b9b0 463c b2a6 6a3c 5b1d dbbc
000000d0: 93a6 70bd 98bc 88bd 64f9 88bc e8d4 6fbd
000000e0: 6bc6 12bd 073c 14bd 2f0a 353d 618e a7bb
000000f0: e367 49bd 1b6b 5cbd 8fec cf3a 2004 f93b
00000100: 5e04 58bc 2c7f 1bbd a4c5 4bbb 22a9 56bc
00000110: d861 453a 26d4 fdba c801 94bc 0c94 a13b
00000120: ef11 343d 5daf 133d 0391 6ebd a734 6bbd
00000130: 6d99 98bc 94a8 94bd 58af 0cbd e8da 68bc
00000140: 5ce0 b8bc ba8e 5bbd 3100 7e3c 9c5b a8bd

fc2.weight f4 [10, 84]
0.039725125 0.08135735 0.034669474 -0.11229502 -0.2301796 -0.1247212 -0.260252 -0.20867728
-0.32126367 0.09873717 0.09039202 0.019283986 0.17270948 -0.031525213 -0.14613682 -0.33676955
-0.011471217 0.018902738 0.07932981 0.1438352 0.019147046 0.026705336 0.19116673 0.16012123
-0.19048786 0.0661584 -0.024223585 -0.100123905 -0.02357825 -0.24180198 0.21397397 -0.059063476
-0.2636608 -0.19508585 -0.31605092 -0.015961703 0.04506183 0.052530747 -0.29780328 -0.12315754
0.18968137 -0.05314073 0.11782507 -0.088621005 0.110711314 0.019941524 -0.20450023 0.1042545
-0.07662836 -0.20918429 0.016880589 0.11976521 -0.22778097 0.103091314 -0.14696917 -0.09027376
0.09708275 -0.20289665 0.017394403 0.10519048 0.030520111 -0.09156145 0.16439772 -0.12814197
-0.113401145 0.14442599 -0.18802509 0.13031025 0.063233614 0.07458053 -0.17626506 -0.27833864
-0.0403689 0.16149586 0.17899504 -0.017227044 -0.12843268 0.17167178 -0.04333239 -0.08654393
-0.23029344 -0.1592973 -0.20265223 0.013342889 0.07119684 0.19013211 0.19158337 -0.0953408
0.15605684 0.005739427 -0.016812254 -0.16132444 -0.028777719 -0.14428034 -0.12132163 0.18452774
0.103512615 -0.02268229 0.13370387 -0.00022570367 0.02740805 -0.027258037 -0.23437469 -0.09037084
0.057585083 -0.108218856 0.067460924 -0.17906696 -0.20823273 -0.3489506 0.021381691 -0.16573939
0.008184722 0.051495057 0.19062203 0.10486318 0.06507448 -0.22248533 0.05622161 0.11108988
-0.09231487 -0.22889297 0.07917886 0.022040313 -0.18612258 0.07665933 -0.08733394 -0.30093807
-0.06579272 0.04122325 0.033572916 -0.00060716073 0.12501615 0.09307874 -0.09840609 0.13264772
0.0058103707 -0.08401167 0.10758054 -0.11426532 0.026482472 -0.023270857 0.058937054 -0.15445569
0.14745718 0.10573658 0.15428646 -0.046866886 -0.1599475 -0.19378902 0.13416436 -0.17776053
0.14558178 0.032251623 -0.1043718 0.10881834 0.15972707 0.11011904 -0.17390148 -0.29424694
0.022058591 -0.19351323 0.115289405 0.1823979 -0.009334045 -0.12153484 0.04235521 -0.23336872
0.06917084 -0.29120782 -0.22305204 0.18451843 0.0750418 -0.09036336 -0.060087632 -0.14509232
0.13573721 0.07139017 -0.034750845 -0.20948426 0.075169794 0.01611084 -0.16896047 0.108356304
0.028332504 -0.00089368847 -0.1959234 0.048443414 0.040099766 -0.25559545 0.14734907 0.12346224
0.13080703 -0.2258396 -0.0831802 -0.02345789 -0.08598283 -0.2676075 -0.17878865 -0.07113326
-0.12046448 -0.12235685 -0.28497696 0.12398364 0.07305751 0.08154627 0.08238383 0.08926812
0.044860285 0.017967727 -0.17419285 -0.29816574 0.08747016 -0.071267396 -0.22840954 -0.14785779
-0.0030812705 0.06264454 0.13521485 -0.20086838 0.03880278 -0.03828123 0.18449365 0.13244064
-0.174334 0.06683738 0.063097715 0.06506236 0.16826431 0.059189104 -0.28821972 -0.27622792
0.09432546 -0.13639659 0.08297708 -0.21737605 0.18328446 0.06348774 -0.2939008 0.001364583
-0.13878678 -0.2559514 0.10513584 0.10423704 -0.19003764 0.13069901 -0.058592625 -0.19178888
0.048933797 0.18117411 -0.25654703 -0.09981695 0.13269247 0.07445742 -0.123115264 -0.10076384
00000000: d0b6 223d af9e a63d 9401 0e3d eefa e5bd
00000010: 33b4 6bbe d46d ffbd c03f 85be 7faf 55be
00000020: ac7c a4be b736 ca3d 741f b93d 73f9 9d3c
00000030: c1da 303e 9520 01bd e4a4 15be 0f6d acbe
00000040: c5f1 3bbc ead9 9a3c ab77 a23d 8949 133e
00000050: 44da 9c3c 26c5 da3c 36c1 433e d2f6 233e
00000060: 400f 43be 0e7e 873d 8a70 c6bc c30d cdbd
00000070: 2d27 c1bc f09a 77be fe1b 5b3e 8bec 71bd
00000080: 8cfe 86be 96c4 47be 6dd1 a1be 1ec2 82bc
00000090: c192 383d 7b2a 573d ac79 98be 053a fcbd
000000a0: d53b 423e 18aa 59bd 454e f13d ee7e b5bd
000000b0: 9dbc e23d 685c a33c 8268 51be 6283 d53d
000000c0: 54ef 9cbd 6834 56be 2949 8a3c 7647 f53d
000000d0: 6a3f 69be 8a21 d33d 167f 16be 73e1 b8bd
000000e0: 52d3 c63d 24c4 4fbe b57e 8e3c 1b6e d73d
000000f0: 5005 fa3c 9284 bbbd e057 283e a637 03be
00000100: dc3e e8bd 68e4 133e a689 40be 0d70 053e
00000110: a080 813d adbd 983d d47e 34be 6782 8ebe
00000120: dc59 25bd 2c5f 253e 7a4a 373e bb1f 8dbc
00000130: db83 03be baca 2f3e 4e7d 31bd f23d b1bd
00000140: 0bd2 6bbe d51e 23be 1184 4fbe 229c 5a3c
00000150: a6cf 913d feb1 423e 6e2e 443e 0a42 c3bd
00000160: 5dcd 1f3e ce11 bc3b dab9 89bc 3c32 25be
00000170: 40bf ebbc 3abe 13be 7a77 f8bd d7f4 3c3e
00000180: 6cfe d33d 36d0 b9bc abe9 083e deaa 6cb9
00000190: d986 e03c 3f4c dfbc ebff 6fbe 5914 b9bd
000001a0: 56de 6b3d d9a1 ddbd f428 8a3d 545d 37be
000001b0: f63a 55be a7a9 b2be a828 af3c 96b7 29be
000001c0: 3619 063c 7bec 523d 6c32 433e 82c2 d63d
000001d0: c545 853d 32d3 63be a248 663d 1783 e33d
000001e0: 940f bdbd eb62 6abe 8728 a23d e38d b43c
000001f0: eb96 3ebe 91ff 9c3d 23dc b2bd 8e14 9abe
00000200: 55be 86bd b6d9 283d c183 093d de29 1fba
00000210: 3c04 003e 11a0 be3d 2289 c9bd ced4 073e
00000220: ec64 be3b 4f0e acbd 3053 dc3d f003 eabd
00000230: c5f1 d83c 86a2 bebc fb67 713d a229 1ebe
00000240: 04ff 163e 6c8c d83d 45fd 1d3e 7ef7 3fbd
00000250: 47c9 23be a170 46be 6262 093e db06 36be
00000260: 6413 153e 471a 043d e2c0 d5bd 26dc de3d
00000270: 7e8f 233e 1786 e13d 3b13 32be 89a7 96be
00000280: 38b4 b43c 5528 46be da1c ec3d 84c6 3a3e
00000290: d3ed 18bc 42e7 f8bd a87c 2d3d 36f8 6ebe
000002a0: 71a9 8d3d 3119 95be c167 64be 66f2 3c3e
000002b0: 84af 993d 6d10 b9bd 731e 76bd 1593 14be
000002c0: b2fe 0a3e 0235 923d e756 0ebd 0b83 56be
000002d0: 9ff2 993d e1fa 833c f903 2dbe e9e9 dd3d
000002e0: 9119 e83c 6b46 6aba 25a0 48be 9a6c 463d
000002f0: a73f 243d 68dd 82be ade2 163e c5d9 fc3d
00000300: 47f2 053e 7f42 67be 615a aabd c32a c0bc
00000310: c417 b0bd da03 89be 5f14 37be 51ae 91bd
00000320: 15b6 f6bd 3a96 fabd 80e8 91be 22eb fd3d
00000330: 2d9f 953d bb01 a73d dab8 a83d 34d2 b63d
00000340: 6bbf 373d 0e31 933c 9c5f 32be 2ea9 98be
00000350: 8e23 b33d a4f4 91bd 31e4 69be 0868 17be
00000360: 24ef 49bb c84b 803d c375 0a3e 71b0 4dbe
00000370: aaef 1e3d c7cc 1cbd e7eb 3c3e 859e 073e
00000380: 9d84 32be 09e2 883d 6039 813d 6a3f 853d
00000390: 7b4d 2c3e 4670 723d 8991 93be bf6d 8dbe
000003a0: b52d c13d 8cab 0bbe e3ef a93d d497 5ebe
000003b0: ecae 3b3e dc05 823d 2a7a 96be cfdb b23a
000003c0: 1f1e 0ebe 100c 83be 7651 d73d 3b7a d53d
000003d0: 3a99 42be f6d5 053e d2fe 6fbd 4e64 44be
000003e0: ce6e 483d b585 393e 225a 83be d46c ccbd
000003f0: 89e0 073e 227d 983d db23 fcbd 465d cebd

fc2.bias f4 [10]
0.0032339466 0.014885862 -0.0865314 -0.013419628 0.009672981 -0.0075533283 -0.0026982238 -0.033638056
0.12822768 0.00542773
00000000: 9ff0 533b d5e3 733c 6037 b1bd 00de 5bbc
00000010: 6c7b 1e3c e981 f7bb afd4 30bb 0fc8 09bd
00000020: 1e4e 033e 19db b13b
